final_models/BCE.pt (torch, 25695 bytes, 3 tensors)

l1.weight f4 [100, 58]
0.16595285 0.15730588 0.04325183 -0.11746158 0.011888558 0.09568833 0.20107725 0.06162652
-0.17781132 0.089977585 -0.057339843 -0.079562485 -0.024384271 -0.16186808 0.0029126992 0.16521162
-0.0402921 -0.006387547 -0.19864179 -0.35135597 -0.12030579 -0.0044204635 -0.016709153 -0.23692273
-0.047091495 -0.07251307 -0.011687542 -0.11076057 -0.006920883 -0.37050194 0.03757642 -0.055679798
-0.083504446 -0.31018326 0.05814028 -0.15181324 -0.1469771 -0.06376129 0.16223712 -0.011642476
-0.0736002 -0.10888596 -0.007847877 -0.37934792 0.025640765 -0.009789779 -0.04881733 0.11394542
0.06748442 -0.037132774 0.13493557 -0.18585734 0.07576064 0.23955627 0.01835531 0.14463426
0.18366347 -0.24349175 -0.29277316 -0.103528194 0.2041633 0.1233294 0.3112688 0.093194656
-0.15044011 0.12044846 0.032957785 0.030110093 0.046926957 0.12538838 -0.024557067 -0.02507884
-0.005605465 0.036409736 -0.10037961 0.009244372 0.06638465 -0.0956401 0.2416295 0.059005223
-0.044304155 -0.2311445 0.066708244 0.08738274 -0.22702397 0.3668025 -0.23450655 0.06442784
0.15547305 0.15292105 0.06001024 0.017390292 0.107676454 0.044712216 0.39935425 0.080954134
-0.07671215 0.115295835 0.107070126 -0.07812845 -0.19672835 0.22618867 -0.20980786 -0.15244606
0.14617524 -0.32814145 0.048509676 -0.16136342 -0.018960437 -0.20513213 -0.11924464 -0.21987642
0.027755879 -0.0018439929 0.06632571 0.08044727 0.020051146 -0.4124503 0.06508336 -0.20950152
-0.12576973 0.04630602 0.10595057 0.05001531 0.09942543 0.3144624 -0.07081771 0.047846783
-0.22408603 -0.03671085 0.0031102211 -0.059219077 -0.16971846 -0.031057104 0.049390525 0.099327415
0.019186817 -0.04074258 0.025025932 0.064515434 -0.0034320927 0.08685893 -0.14631917 -0.02477036
0.18196766 0.194836 -0.15815036 -0.104025565 -0.101617895 0.09225126 0.13115178 -0.06632137
-0.29312256 0.0135309715 -0.09758432 0.35646132 0.26114365 0.11786249 -0.11034738 -0.055071753
0.06672878 -0.011455576 0.10717056 0.0047272854 0.06835704 -0.17846486 0.17397228 0.13918352
-0.038990974 -0.12356524 0.18212053 0.10250757 0.1396158 0.30758578 0.13615884 0.29840896
-0.062070884 -0.12094333 0.13025862 0.11755353 -0.037369043 -0.14080906 0.02665604 0.013605591
0.17673425 0.3796021 0.12501058 0.02410482 -0.044396907 -0.06497306 0.16674933 0.0255241
0.04304097 0.41499263 -0.33704916 0.14573665 -0.08350736 0.018092886 -0.14446647 -0.12626645
-0.25149342 0.06396413 0.098802105 -0.30470097 -0.018469702 -0.11101173 -0.14746867 0.13126072
0.07084212 -0.07634526 0.16266823 -0.019541392 -0.08605909 0.1351935 -0.010715459 0.039383803
0.046197742 0.08750839 0.11900181 -0.21762818 -0.076776415 0.07812478 0.24930017 0.12643234
0.24386911 -0.02936471 -0.1336458 -0.12651339 0.17019953 0.0006886418 0.09325716 -0.0051918696
0.03643108 0.1863332 0.036304846 -0.20713222 0.17729835 0.07150426 0.14396565 0.074643806
-0.25522542 -0.10925154 0.05725439 0.07372086 0.13977326 -0.2233033 0.27665424 0.33217707
-0.19904251 0.14062965 0.2972712 0.27058357 -0.27381384 0.1295503 -0.20886235 -0.15084173
00000000: 8bef 293e cb14 213e d528 313d b28f f0bd
00000010: 3ac8 423c 3ef8 c33d 32e7 4d3e 176c 7c3d
00000020: 2c14 36be 2b46 b83d 2fdd 6abd a8f1 a2bd
00000030: 86c1 c7bc bfc0 25be fce2 3e3b 3c2d 293e
00000040: 5409 25bd a14e d1bb c168 4bbe eee4 b3be
00000050: e262 f6bd 89d9 90bb a2e1 88bc df9b 72be
00000060: 03e3 40bd bc81 94bd 1b7d 3fbc 70d6 e2bd
00000070: 93c8 e2bb 6eb2 bdbe bbe9 193d 8010 64bd
00000080: 6104 abbd 57d0 9ebe 8124 6e3d ee74 1bbe
00000090: 2a81 16be 4795 82bd 7d21 263e 15c0 3ebc
000000a0: b4bb 96bd 9aff debd 6294 00bc e439 c2be
000000b0: 950c d23c 4f65 20bc aef4 47bd 375c e93d
000000c0: 4635 8a3d 8918 18bd 8d2c 0a3e 6351 3ebe
000000d0: 6528 9b3d 3d4e 753e e05d 963c 011b 143e
000000e0: 4712 3c3e e755 79be 5de6 95be 9706 d4bd
000000f0: 2f10 513e 2094 fc3d a05e 9f3e d7dc be3d
00000100: f90c 1abe afad f63d befe 063d 71a9 f63c
00000110: 7b36 403d d065 003e e72b c9bc 2472 cdbc
00000120: 0cae b7bb 6022 153d d393 cdbd b575 173c
00000130: adf4 873d f5de c3bd b96d 773e 76af 713d
00000140: 4678 35bd 25b1 6cbe 559e 883d b9f5 b23d
00000150: f978 68be 8acd bb3e 7c22 70be bef2 833d
00000160: 5434 1f3e 5697 1c3e 4ccd 753d 1676 8e3c
00000170: 7985 dc3d 2824 373d 2978 cc3e 48cb a53d
00000180: 421b 9dbd 3920 ec3d 9547 db3d cf01 a0bd
00000190: 2873 49be 019e 673e dfd7 56be d21a 1cbe
000001a0: f6ae 153e 2802 a8be 15b2 463d 743c 25be
000001b0: eb52 9bbc 280e 52be 8936 f4bd 4927 61be
000001c0: 4c60 e33c 22b2 f1ba c6d5 873d 8ac1 a43d
000001d0: 4d42 a43c b02c d3be 6d4a 853d 9187 56be
000001e0: c8c9 00be 62ab 3d3d 9dfc d83d dbdc 4c3d
000001f0: 8f9f cb3d 3701 a13e e008 91bd fdfa 433d
00000200: cf76 65be 1e5e 16bd dad4 4b3b b48f 72bd
00000210: adca 2dbe 786b febc b84d 4a3d 2c6c cb3d
00000220: ac2d 9d3c b1e1 26bd 2f03 cd3c ab20 843d
00000230: f6ec 60bb 18e3 b13d b1d4 15be 36eb cabc
00000240: bb55 3a3e 1783 473e 2bf2 21be 5b0b d5bd
00000250: 0b1d d0bd 3bee bc3d a74c 063e 80d3 87bd
00000260: 2914 96be 02b1 5d3c 4ada c7bd 1982 b63e
00000270: 9fb4 853e e461 f13d cffd e1bd eb92 61bd
00000280: 19a9 883d 2bb0 3bbc 3d7c db3d 58e7 9a3b
00000290: c7fe 8b3d 7ebf 36be ca25 323e 2086 0e3e
000002a0: 00b5 1fbd c60f fdbd ce7d 3a3e 7def d13d
000002b0: 72f7 0e3e e27b 9d3e 396d 0b3e 0fc9 983e
000002c0: 0a3e 7ebd 23b1 f7bd 8462 053e e8bf f03d
000002d0: 4810 19bd 4030 10be c55d da3c fce9 5e3c
000002e0: d3f9 343e 355b c23e c602 003e 7977 c53c
000002f0: 88d9 35bd 9810 85bd 56c0 2a3e eb17 d13c
00000300: ba4b 303d ea79 d43e b591 acbe fd3b 153e
00000310: e805 abbd 8837 943c 05ef 13be fe4b 01be
00000320: bfc3 80be a0ff 823d c258 ca3d c401 9cbe
00000330: c64d 97bc 1e5a e3bd 0702 17be 3669 063e
00000340: ac15 913d e75a 9cbd 8092 263e 4515 a0bc
00000350: c03f b0bd 2a70 0a3e e48f 2fbc e950 213d
00000360: d839 3d3d 9937 b33d 39b7 f33d ecd9 5ebe
00000370: f43c 9dbd e2ff 9f3d 8b48 7f3e 7b77 013e
00000380: d3b8 793e 438e f0bc 72da 08be ba8c 01be
00000390: c948 2e3e f885 343a 9cfd be3d 8f20 aabb
000003a0: c238 153d 21ce 3e3e 64b4 143d 781a 54be
000003b0: b38d 353e d370 923d bb6b 133e dade 983d
000003c0: e8ac 82be 45bf dfbd 9483 6a3d f6fa 963d
000003d0: b920 0f3e 9fa9 64be a0a5 8d3e 1d13 aa3e
000003e0: cdd1 4bbe 3801 103e ee33 983e ee89 8a3e
000003f0: 5431 8cbe d5a8 043e 03e0 55be 4176 1abe

l1.bias f4 [100]
0.031039035 -0.031626523 -0.02040302 0.07716322 -0.032444183 0.030788431 -0.11649035 -0.03174488
-0.03304077 0.08096282 -0.102850884 -0.012231947 0.13025813 -0.15620136 0.06784536 -0.040027943
-0.06593542 -0.12686132 -0.017866706 -0.089600995 0.013709061 -0.05984511 -0.09042879 -0.11301545
0.106330395 0.008495187 0.11309711 -0.113358915 0.0036523254 -0.028229048 0.052486926 0.025998857
0.05560573 0.08479429 -0.011798876 -0.05185478 -0.14209284 -0.024136271 0.12981561 -0.033212714
0.055034608 -0.093875796 0.01560353 0.025314607 0.021224657 -0.051466428 -0.09179906 0.019405132
-0.06463747 -0.07206762 0.06483118 0.082167424 -0.008566998 0.064697824 -0.0011450615 0.009919477
0.068907194 0.0076915515 -0.053744897 -0.023654044 0.04067278 0.05337817 0.008395728 0.013965033
0.050186887 0.024751127 0.09583977 -0.07957703 -0.047659487 -0.09771987 -0.010490804 -0.009395224
-0.04472778 0.04275248 0.0009349616 0.034526024 -0.0043699737 -0.103902794 -0.10586244 -0.096247815
-0.016907766 -0.059180226 -0.10654364 0.11191317 0.019224245 0.12568395 -0.1344497 -0.09011482
0.027324848 0.15306002 0.063424416 -0.083406776 -0.07524793 -0.0037795478 -0.12473136 -0.17470236
0.03574768 0.07080803 -0.13930582 0.05004934
00000000: 9345 fe3c d08a 01bd 3c24 a7bc c007 9e3d
00000010: 31e4 04bd 0538 fc3c 7e92 eebd eb06 02bd
00000020: c255 07bd d6cf a53d 7ca3 d2bd 8168 48bc
00000030: 6362 053e 40f3 1fbe 82f2 8a3d 57f4 23bd
00000040: 2609 87bd efe7 01be 335d 92bc ba80 b7bd
00000050: f89b 603c 2520 75bd bb32 b9bd a574 e7bd
00000060: c0c3 d93d 662f 0b3c 759f e73d b828 e8bd
00000070: da5b 6f3b 9b40 e7bc 88fc 563d 8efb d43c
00000080: d5c2 633d a1a8 ad3d 1350 41bc ae65 54bd
00000090: c980 11be 6eb9 c5bc 62ee 043e 0e0a 08bd
000000a0: f86b 613d f441 c0bd f3a5 7f3c 9460 cf3c
000000b0: 55df ad3c 76ce 52bd 2501 bcbd 83f7 9e3c
000000c0: a660 84bd 3098 93bd 36c6 843d 6547 a83d
000000d0: 985c 0cbc 4b80 843d e315 96ba 4d85 223c
000000e0: 371f 8d3d 6909 fc3b 9c23 5cbd 20c6 c1bc
000000f0: 8098 263d 11a3 5a3d 3c8e 093c 98cd 643c
00000100: c490 4d3d e0c2 ca3c a447 c43d 48f9 a2bd
00000110: 9836 43bd 5b21 c8bd 9fe1 2bbc 6dee 19bc
00000120: 7a34 37bd 391d 2f3d 3618 753a 296b 0d3d
00000130: ff31 8fbb fdca d4bd 68ce d8bd 931d c5bd
00000140: 2882 8abc f766 72bd 8d33 dabd bb32 e53d
00000150: 2a7c 9d3c 4bb3 003e 2fad 09be 1e8e b8bd
00000160: 5cd8 df3c c4bb 1c3e a9e4 813d 2cd1 aabd
00000170: 961b 9abd 4ab2 77bb 2873 ffbd 2de5 32be
00000180: 296c 123d cd03 913d 2fa6 0ebe 8900 4d3d

l2.weight f4 [1, 100]
-0.084796466 -0.08337763 -0.028772777 -0.12767623 0.09539143 0.23999718 0.0033078787 0.035095524
-0.38771403 -0.03735516 -0.16111356 -0.061179247 0.053312298 -0.20683163 0.019487767 0.005718344
-0.01904641 0.20229419 0.2593143 0.18818478 -0.047464717 -0.10038989 -0.19815454 -0.13762443
0.22997367 -0.23156452 -0.05899673 -0.005807951 0.26813424 0.056585226 -0.060370166 -0.094745606
0.08612071 -0.074758865 -0.11771213 -0.040772244 -0.20170565 0.017389381 0.052521415 -0.15956783
-0.09852768 -0.061319668 -0.048786342 -0.0030499704 0.33575714 0.09612429 0.12477186 0.17111242
-0.036203373 0.26954553 0.032966383 0.07828835 0.19570841 0.16390501 -0.089913934 0.16379432
0.05468963 -0.0755958 0.07518687 -0.20548402 -0.12613401 0.014304103 -0.091155335 0.09697111
-0.08584432 0.016416242 0.028479425 -0.005977688 -0.3264167 0.20011309 -0.06411952 0.03197845
0.07108325 -0.16368398 -0.1046999 0.07790947 0.0070185713 0.11617741 -0.06665543 0.034147125
0.2748053 0.04040016 0.06749208 0.09954971 0.27984223 0.14896415 -0.14803118 -0.12059897
0.0056603574 0.25300834 0.088943236 -0.20314224 0.01700239 -0.08790571 0.14931045 -0.2077648
-0.02944708 0.034733962 -0.15625177 0.14635369
00000000: c5a9 adbd e4c1 aabd e3b4 ebbc 8fbd 02be
00000010: 955c c33d d2c1 753e ffc8 583b 53c0 0f3d
00000020: 7482 c6be b901 19bd f4fa 24be 1797 7abd
00000030: ff5d 5a3d accb 53be cfa4 9f3c f260 bb3b
00000040: 3807 9cbc 3526 4f3e d8c4 843e 83b3 403e
00000050: 5d6a 42bd 3799 cdbd 06e9 4abe 6bed 0cbe
00000060: 387e 6b3e 401f 6dbe 8ea6 71bd a050 bebb
00000070: e448 893e e9c5 673d b546 77bd fc09 c2bd
00000080: 0e60 b03d 2d1b 99bd 0f13 f1bd cc00 27bd
00000090: ed8b 4ebe 2d74 8e3c b220 573d c065 23be
000000a0: e1c8 c9bd 552a 7bbd 30d4 47bd 03e2 47bb
000000b0: 5ce8 ab3e d0dc c43d 6488 ff3d 1838 2f3e
000000c0: fd49 14bd df01 8a3e c207 073d a455 a03d
000000d0: c967 483e b7d6 273e cc24 b8bd b3b9 273e
000000e0: 3c02 603d f9d1 9abd 93fb 993d 676a 52be
000000f0: 4629 01be c25b 6a3c a6af babd ca98 c63d
00000100: 26cf afbd 5b7b 863c af4d e93c 7be0 c3bb
00000110: 1720 a7be 72ea 4c3e 1851 83bd d6fb 023d
00000120: 1894 913d c69c 27be e76c d6bd 008f 9f3d
00000130: 0bfc e53b 6cee ed3d a482 88bd dbdd 0b3d
00000140: 48b3 8c3e a37a 253d 4a39 8a3d b8e0 cb3d
00000150: 7b47 8f3e 0f8a 183e 7c95 17be 98fc f6bd
00000160: 857a b93b 4f8a 813e df27 b63d 8504 50be
00000170: 9948 8b3c e907 b4bd d7e4 183e 4cc0 54be
00000180: 013b f1bc 3345 0e3d 7700 20be bedd 153e
