final_models/MSE.pt (torch, 25807 bytes, 3 tensors)

l1.weight f4 [100, 58]
-0.11925775 -0.085687995 0.27755228 -0.16865368 -0.031895816 -0.07432695 0.16381004 0.012348042
-0.14834045 -0.0493773 -0.28793246 0.07877928 0.17822132 -0.19053629 -0.06713836 -0.1895543
0.042411715 0.058055628 0.2684581 0.23183963 0.01960885 0.037709802 0.13229573 0.18950947
-0.22569601 -0.0048356266 0.02842839 0.09195129 -0.13410905 -0.13324818 0.011631889 0.05178437
-0.058259074 -0.019565105 -0.09866683 0.04315679 -0.090466686 0.11232463 -0.16331811 0.20150517
0.21181858 -0.1181231 -0.19031335 -0.10647225 -0.233199 -0.32951656 0.026549408 0.004194059
0.11269988 -0.21569034 -0.13384427 -0.20148386 0.12147764 0.10943185 -0.19588058 -0.20370449
-0.020006675 -0.11512507 0.0037325313 0.24606712 -0.31752074 0.056793872 -0.21307184 0.005295773
-0.05969187 -0.19134738 0.0344649 -0.028005231 0.26868188 0.0034698667 -0.14221665 -0.03732533
0.0015192552 -0.10154353 0.050561085 -0.08976287 -0.017510736 -0.10268138 0.11180811 -0.14360572
0.13200599 0.057805456 -0.20116542 -0.17705725 0.12472596 0.0050158566 0.0010676659 -0.056881532
0.029095035 0.25752503 -0.045774247 0.055715702 -0.2816344 0.016036328 0.0533919 0.027343696
0.1356455 0.028737731 -0.22432965 0.013094222 -0.3091353 -0.040988754 -0.19834101 0.20513041
0.2802771 -0.30790523 0.06148916 -0.27950558 0.09332016 -0.0015708052 -0.14109921 -0.037893206
0.11022885 0.3069949 -0.20768139 0.06766502 0.074563235 -0.4894893 0.079216614 -0.041622855
0.3414264 0.23486029 -0.065992944 0.37257764 0.010143726 -0.06044297 -0.10211992 0.13849522
-0.21309125 -0.08314728 -0.1826745 -0.024523156 0.37408474 0.29592884 0.17795289 -0.3116766
0.09946136 0.20333695 -0.07228757 0.019560315 -0.03321457 -0.08564322 -0.32384697 -0.024355635
0.24404877 -0.0012936054 0.0213534 -0.059039053 -0.027938947 -0.13269934 0.16947116 -0.11252786
-0.33408234 -0.09875933 0.0051516495 0.29082885 0.18420231 -0.24199557 -0.015251805 -0.06402091
-0.113368854 -0.00027089656 -0.061391182 -0.0078829685 -0.14868706 0.38356292 0.21035121 -0.29445606
0.06676309 -0.10059759 -0.011115166 0.022188384 0.03261993 -0.030597804 -0.1917087 -0.08432747
0.040983804 0.12001342 0.025419509 -0.021868076 -0.057095293 -0.13575162 0.0024657522 -0.26106283
-0.026942784 -0.1564874 0.13546146 0.24768825 0.0861446 -0.27227753 0.24628964 -0.026843373
0.042819988 -0.13919681 0.09414107 -0.15736167 0.14141327 0.118084274 0.033903044 -0.024695545
0.021749808 0.11851923 0.11139735 -0.19369908 0.080967054 0.07807395 0.044412572 -0.114095554
-0.24465829 -0.016266335 -0.23341268 0.06599465 -0.013352637 0.24325158 0.039686043 -0.012351419
-0.12815945 -0.041683365 -0.07979245 -0.2591178 -0.014359916 -0.00831408 -0.2691865 0.090447485
-0.100825295 -0.2038958 0.041696645 -0.017741203 -0.091168955 0.0043642814 0.07880046 -0.0298969
-0.064806715 0.041936148 -0.1962511 0.1929269 -0.0067710886 -0.0043986556 0.12535803 0.042290937
0.28515887 -0.056046087 0.37971497 -0.072642595 0.01840674 0.037762776 -0.20799614 0.40549237
-0.08965968 0.08337461 -0.05508248 0.044859156 -0.14512245 -0.15032367 0.043018013 0.1299974
00000000: 683d f4bd 307d afbd 551b 8e3e 8db3 2cbe
00000010: 30a5 02bd ba38 98bd d2bd 273e 714f 4a3c
00000020: 8fe6 17be da3f 4abd e26b 93be 0857 a13d
00000030: a67f 363e f21b 43be d67f 89bd 861a 42be
00000040: e8b7 2d3d bdcb 6d3d 5773 893e 5e67 6d3e
00000050: bda2 a03c 9875 1a3d 8878 073e c50e 423e
00000060: db1c 67be 2d74 9ebb a8e2 e83c f550 bc3d
00000070: e253 09be 3672 08be ae93 3e3c d91b 543d
00000080: 11a1 6ebd 0047 a0bc d611 cabd 2dc5 303d
00000090: 9946 b9bd 750a e63d dd3c 27be 5f57 4e3e
000000a0: f8e6 583e 86ea f1bd 81e1 42be 1f0e dabd
000000b0: b8cb 6ebe 65b6 a8be 257e d93c 516e 893b
000000c0: 32cf e63d eedd 5cbe 790e 09be c951 4ebe
000000d0: 45c9 f83d ce1d e03d eb94 48be e997 50be
000000e0: 0ae5 a3bc b1c6 ebbd 7c9d 743b 05f9 7b3e
000000f0: 1492 a2be b1a0 683d 812f 5abe 2a88 ad3b
00000100: 767f 74bd 91f0 43be 112b 0d3d 3a6b e5bc
00000110: ac90 893e b466 633b 3ea1 11be 72e2 18bd
00000120: bf21 c73a 0ef6 cfbd 2419 4f3d 98d5 b7bd
00000130: ad72 8fbc 9e4a d2bd a6fb e43d 610d 13be
00000140: 942c 073e 6ac5 6c3d 4ffe 4dbe 7f4e 35be
00000150: 5370 ff3d 0e5c a43b ecf0 8b3a 9cfc 68bd
00000160: b658 ee3c 52da 833e c77d 3bbd 2636 643d
00000170: 6232 90be 9e5e 833c 77b1 5a3d e3ff df3c
00000180: a7e6 0a3e 646b eb3c acb6 65be 2689 563c
00000190: fb46 9ebe d3e3 27bd e819 4bbe b50d 523e
000001a0: 7b80 8f3e c1a5 9dbe 0fdc 7b3d 5b1b 8fbe
000001b0: a41e bf3d 7ae3 cdba 507c 10be e835 1bbd
000001c0: aabf e13d 6f2e 9d3e 6eaa 54be f593 8a3d
000001d0: 9cb4 983d 579e fabe 523c a23d ba7c 2abd
000001e0: 71cf ae3e 377f 703e 4f27 87bd 7fc2 be3e
000001f0: df31 263c 0c93 77bd 4024 d1bd b1d1 0d3e
00000200: 9834 5abe 1f49 aabd 060f 3bbe c9e4 c8bc
00000210: 0988 bf3e fc83 973e 4839 363e 1394 9fbe
00000220: 66b2 cb3d 9037 503e 810b 94bd f43c a03c
00000230: 000c 08bd b665 afbd 45cf a5be 7885 c7bc
00000240: ece7 793e 328e a9ba 53ed ae3c efd2 71bd
00000250: 38e0 e4bc 56e2 07be d989 2d3e 0275 e6bd
00000260: d70c abbe 5542 cabd 2bcf a83b 85e7 943e
00000270: 889f 3c3e b0cd 77be b5e2 79bc 651d 83bd
00000280: ee2d e8bd 1f07 8eb9 5275 7bbd 9127 01bc
00000290: 6c41 18be 5c62 c43e 4f66 573e f2c2 96be
000002a0: 16bb 883d 1c06 cebd 631c 36bc 6ac4 b53c
000002b0: 7a9c 053d 3fa8 fabc 494f 44be e1b3 acbd
000002c0: a2de 273d 99c9 f53d 933c d03c ae24 b3bc
000002d0: c1dc 69bd 7902 0bbe 7598 213b 07aa 85be
000002e0: 1db7 dcbc 3c3e 20be 69b6 0a3e fda1 7d3e
000002f0: 946c b03d f667 8bbe 5a33 7c3e a2e6 dbbc
00000300: 0364 2f3d 9c89 0ebe 09cd c03d 6b23 21be
00000310: a4ce 103e 2bd6 f13d ebdd 0a3d 504e cabc
00000320: a72c b23c 36ba f23d 4b24 e43d 0d59 46be
00000330: 0ed2 a53d 3ce5 9f3d f5e9 353d eeaa e9bd
00000340: b487 7abe fa40 85bc bc03 6fbe 3428 873d
00000350: 05c5 5abc f116 793e d58d 223d 9b5d 4abc
00000360: 3b3c 03be 2dbc 2abd 396a a3bd 17ab 84be
00000370: da45 6bbc c737 08bc d0d2 89be 883c b93d
00000380: 7e7d cebd 10ca 50be 1aca 2a3d 0056 91bc
00000390: cab6 babd 3f02 8f3b 2362 a13d 58ea f4bc
000003a0: 62b9 84bd 3dc5 2b3d 0cf6 48be a18e 453e
000003b0: 02e0 ddbb 9922 90bb db5d 003e 4339 2d3d
000003c0: 5800 923e 9590 65bd 006a c23e a4c5 94bd
000003d0: bbc9 963c 24ad 1a3d f1fc 54be b29c cf3e
000003e0: 7f9f b7bd 4fc0 aa3d 2b9e 61bd 3cbe 373d
000003f0: fb9a 14be 73ee 19be a833 303d 0a1e 053e

l1.bias f4 [100]
-0.06263566 0.08848135 -0.100676574 -0.12335408 -0.053466048 0.07018861 0.03060568 -0.042477254
0.07855848 0.106801905 -0.1808788 -0.013934781 0.011205671 0.117653 0.0800447 -0.087901026
-0.042346593 0.04087077 -0.09965781 -0.007923546 0.03960116 -0.02729947 -0.11338025 0.07338724
-0.123875655 -0.14465503 0.12543352 0.024512675 -0.013018549 -0.010665003 0.010620406 -0.08652976
-0.011445818 -0.0064525413 -0.1229217 -0.10655822 -0.063912034 -0.06089629 -0.002764124 -0.027913729
-0.14283276 -0.096163735 0.12335065 0.028262002 0.079125464 -0.07016187 -0.045696143 0.011683693
-0.028883772 -0.12052035 -0.12477602 -0.1184602 0.071218394 -0.13487314 0.12748903 0.054051835
-0.14214888 0.007554891 -0.11309165 0.040844545 -0.09417566 -0.03645262 -0.08317946 0.034403298
0.0093326075 -0.06704815 -0.13746785 0.0954905 -0.024722885 0.109884836 -0.03486255 -0.079308584
-0.15211663 0.0657062 -0.034956638 -0.08371798 0.0661907 -0.08516273 0.05812032 0.036188237
0.03922518 -0.056968797 0.08848704 -0.004153768 -0.0036521521 0.07717847 0.1272333 0.10876975
0.027999897 -0.057754926 0.020263962 0.034054924 -0.064769134 0.10397638 -0.044637945 -0.11026088
-0.0018581317 -0.058819767 0.06293877 0.020088311
00000000: 2047 80bd b635 b53d 852f cebd 10a1 fcbd
00000010: 37ff 5abd 0cbf 8f3d c3b8 fa3c a1fc 2dbd
00000020: 45e3 a03d f5ba da3d 4b38 39be b54e 64bc
00000030: fe97 373c 0ef4 f03d 7aee a33d 7405 b4bd
00000040: 9f73 2dbd 1c68 273d 6519 ccbd c3d1 01bc
00000050: d334 223d 23a3 dfbc e833 e8bd 0d4c 963d
00000060: 85b2 fdbd 7320 14be a571 003e cece c83c
00000070: c14b 55bc 44bc 2ebc 3601 2e3c 8436 b1bd
00000080: 3d87 3bbc d76f d3bb 5fbe fbbd 323b dabd
00000090: 50e4 82bd 636e 79bd 4e26 35bb 55ab e4bc
000000a0: c042 12be 7ef1 c4bd 449f fc3d b785 e73c
000000b0: 880c a23d 07b1 8fbd e12b 3bbd f66c 3f3c
000000c0: a99d ecbc 60d3 f6bd 928a ffbd 439b f2bd
000000d0: f3da 913d 2f1c 0abe 7c8c 023e 7565 5d3d
000000e0: 7a8f 11be 058f f73b 989c e7bd 9c4c 273d
000000f0: 2bdf c0bd 584f 15bd fe59 aabd 79ea 0c3d
00000100: cbe7 183c 8a50 89bd 5fc4 0cbe 8690 c33d
00000110: a687 cabc 4d0b e13d 09cc 0ebd 8a6c a2bd
00000120: 76c4 1bbe f990 863d b12e 0fbd 5574 abbd
00000130: fd8e 873d cc69 aebd 930f 6e3d 1e3a 143d
00000140: 95aa 203d 1d58 69bd b138 b53d 551c 88bb
00000150: f258 6fbb bf0f 9e3d 7249 023e adc2 de3d
00000160: 0a60 e53c 6e90 6cbd 9c00 a63c 2d7d 0b3d
00000170: aea5 84bd 91f1 d43d 47d6 36bd 75d0 e1bd
00000180: 8e8c f3ba ffec 70bd 0be6 803d 3e90 a43c

l2.weight f4 [1, 100]
0.05005106 0.05628321 0.2607001 0.050261784 -0.13427767 -0.043729555 -0.18544379 -0.24674354
0.07862333 -0.07677179 -0.17390025 0.076669954 -0.081153356 0.044198878 -0.16747594 -0.18043771
0.015488192 -0.03479306 -0.1394419 -0.084818564 -0.23866236 -0.03043163 -0.13688414 0.048985153
0.0035527437 -0.161123 0.015354551 0.3815364 0.1647042 0.015243328 0.24974105 -0.13969642
-0.29076314 0.042926963 -0.18280104 -0.12841268 0.38531345 0.32752112 0.28475377 -0.06422993
-0.41768545 0.16326976 0.0852952 -0.10335972 0.3270406 -0.15645614 0.17297457 0.022182459
0.0504109 -0.2642813 0.39553297 0.3012769 0.25233045 -0.20399438 -0.012506858 0.09909216
-0.4083831 -0.14641121 -0.07386626 0.23071228 -0.02141321 0.2761985 0.121151894 0.085097626
-0.009664611 -0.120591536 -0.2577769 -0.04774208 -0.06410729 0.119771816 0.1238748 -0.21932298
-0.31162894 -0.035750758 -0.13532291 -0.19963308 0.17549941 0.22376037 0.14875425 0.08389535
0.23572414 0.2739176 -0.116534494 -0.055635277 0.0652075 -0.09259409 0.07502105 0.012315256
-0.23046967 -0.17251906 0.35828605 -0.055726126 0.047028344 0.18735917 -0.093087025 -0.14440528
-0.24697131 -0.09259934 -0.019641332 0.45817363
00000000: 5702 4d3d 3989 663d 7c7a 853e 4ddf 4d3d
00000010: 1680 09be c31d 33bd fae4 3dbe 57aa 7cbe
00000020: 4505 a13d 873a 9dbd e812 32be 2305 9d3d
00000030: bb33 a6bd e209 353d d07e 2bbe aac4 38be
00000040: 30c2 7d3c 2b83 0ebd dcc9 0ebe 5bb5 adbd
00000050: e863 74be c14b f9bc 5b2b 0cbe a8a4 483d
00000060: 26d5 683b 6dfd 24be a891 7b3c bd58 c33e
00000070: 38a8 283e 27bf 793c 1ebc 7f3e 940c 0fbe
00000080: e8de 94be 2fd4 2f3d 3230 3bbe 9d7e 03be
00000090: ce47 c53e d9b0 a73e 3fcb 913e fb8a 83bd
000000a0: deda d5be 3030 273e 40af ae3d 43ae d3bd
000000b0: de71 a73e 0a36 20be 3f20 313e fdb7 b53c
000000c0: a97b 4e3d e14f 87be 4c83 ca3e f740 9a3e
000000d0: 7531 813e e7e3 50be 91e9 4cbc d5f0 ca3d
000000e0: 9717 d1be d2ec 15be 3247 97bd d73f 6c3e
000000f0: c26a afbc e469 8d3e 7c1e f83d aa47 ae3d
00000100: 5158 1ebc b2f8 f6bd 55fb 83be 338d 43bd
00000110: af4a 83bd ed4a f53d 12b2 fd3d 3496 60be
00000120: d48d 9fbe 636f 12bd 1792 0abe 9d6c 4cbe
00000130: 1eb6 333e 7021 653e 0953 183e 53d1 ab3d
00000140: ab61 713e ed3e 8c3e a3a9 eebd d1e1 63bd
00000150: 828b 853d f8a1 bdbd a3a4 993d edc5 493c
00000160: 3e00 6cbe d6a8 30be 4571 b73e 1441 64bd
00000170: cba0 403d 15db 3f3e 69a4 bebd fade 13be
00000180: 0ce6 7cbe b9a4 bdbd dce6 a0bc bc95 ea3e
