backup/final_models/BCE.pt (torch, 25807 bytes, 3 tensors)

l1.weight f4 [100, 58]
0	0x3e234d5f	0.15947483
1	0xbe35392c	-0.1769759
2	0xbe3a427a	-0.18189421
3	0xbd192ae7	-0.03739443
4	0x3e41074f	0.18850444
5	0xbe9d2bd7	-0.3069751
6	0xbd613d07	-0.05498984
7	0xbca46aed	-0.020070517
8	0xbe84ef26	-0.25963706
9	0xbe1c9602	-0.15291598
10	0x3df2fa81	0.11864186
11	0x3da742fd	0.08167074
12	0xbdcbad31	-0.09945143
13	0x3d74779f	0.059684392
14	0x3d479ca3	0.048733365
15	0xbd42a986	-0.04752495
16	0xbddcfdaa	-0.1079057
17	0xbd4180d7	-0.047242012
18	0x3e520108	0.20508206
19	0x3b3e7ceb	0.0029066156
20	0x3d0c1c55	0.034206707
21	0x3d0a29c9	0.033731256
22	0x3e2b934c	0.16755408
23	0x3dbaeb36	0.09126894
24	0x3d95a12d	0.073061325
25	0xbd2ac590	-0.041692317
26	0xbd7b5f6b	-0.061370295
27	0xbdb4c5d1	-0.08826793
28	0xbead470c	-0.33843267
29	0xbdbfb522	-0.0936072
30	0xbc0a184f	-0.008428647
31	0xbb0598ac	-0.002038519
32	0x3c90d716	0.017680686
33	0x3d36f822	0.04467023
34	0x3e296ef0	0.16546226
35	0x3de28a7c	0.1106157
36	0xbe921282	-0.28529745
37	0xbe6a15d0	-0.22859883
38	0x3c9b25ca	0.018938918
39	0xbcbc1e42	-0.022963647
40	0xbe17b828	-0.14816344
41	0x3d983d92	0.074336186
42	0x3e0645a8	0.13112509
43	0x3dc193f2	0.094520465
44	0x3e060351	0.13087203
45	0x3e9bee76	0.3045537
46	0x3e30a8ad	0.17251845
47	0xbe0e6698	-0.13906324
48	0xbe7dba58	-0.24778116
49	0xbd721c63	-0.059109103
50	0x3c20ccc7	0.009814448
51	0x3e3b0ccf	0.18266605
52	0xbe0ca91c	-0.13736385
53	0x3dc099b3	0.09404316
54	0xbd148102	-0.036255844
55	0xbed5d4d5	-0.4176394
56	0xbc7661c1	-0.015037955
57	0x3dad29bd	0.084552266
58	0xbe56bf4f	-0.20971416
59	0x3e6c3d76	0.2307032
60	0xbc35af22	-0.011089118
61	0xbd15ca53	-0.036569905
62	0x3e523aac	0.20530194
63	0x3dfdaafe	0.1238613
64	0xbec4f308	-0.38466668
65	0x3e84b5b0	0.25919867
66	0xbe8b5d4b	-0.27219614
67	0xbe511a49	-0.20420183
68	0x3dcedad0	0.10100329
69	0xbe041cd7	-0.12901627
70	0x3dff0f5a	0.124541
71	0xbe530e74	-0.20610982
72	0xbeb9dc7a	-0.36301023
73	0xbd9c2bf3	-0.0762557
74	0xbe6facda	-0.23405781
75	0xbcc82da9	-0.024435835
76	0xbdcb0789	-0.099135466
77	0xbc6ae978	-0.01433789
78	0xbd9eeab8	-0.07759613
79	0xbe14b3f0	-0.14521766
80	0x3e45d9d3	0.19321375
81	0x3d877bf6	0.066154405
82	0xbd9c19b4	-0.0762209
83	0x3e06fb85	0.13181885
84	0xbe23caf6	-0.15995392
85	0x3e328c8c	0.17436427
86	0x3cd34d67	0.025793744
87	0xbe094e98	-0.13408887
88	0xbc8494e6	-0.016184282
89	0xbe5d6a1e	-0.21622512
90	0xbdc6b813	-0.09703078
91	0xbe4da5f9	-0.20082845
92	0xbda8f69d	-0.08250163
93	0xbe171206	-0.14752969
94	0xbce2934f	-0.027658133
95	0x3ce2e78f	0.027698306
96	0xbdca8253	-0.098881386
97	0xbd42651b	-0.047459703
98	0x3e4b792f	0.19870447
99	0xbea08e1e	-0.31358427
100	0xbdf1c67a	-0.118054345
101	0xbe6a0664	-0.22854
102	0x3d98b443	0.07456257
103	0x3d0a30d4	0.033737972
104	0xbd9cc5e7	-0.076549344
105	0x3e168b80	0.14701653
106	0x3e80ec61	0.25180343
107	0xbe8f944b	-0.28042826
108	0x3e34b394	0.17646629
109	0x3cd83271	0.02639124
110	0xbdb411e9	-0.087924786
111	0xbc58f304	-0.013241533
112	0x3b961a2a	0.0045807557
113	0xbc20e3f6	-0.009819975
114	0xbdcc0615	-0.099620976
115	0xbd2c9388	-0.042132884
116	0xbb8e1fc3	-0.0043372824
117	0xbe5d6038	-0.21618736
118	0x3d588fda	0.052871563
119	0xbcb9a0e6	-0.02265973
120	0xbdcd5cea	-0.100274876
121	0x3d2664f3	0.040623616
122	0xbd4622b5	-0.048372943
123	0x3e04fa97	0.12986217
124	0xbdb89855	-0.0901343
125	0xbde16069	-0.11004717
126	0x3d150a33	0.03638668
127	0x3ea5e79e	0.32403272
128	0xbe618b14	-0.2202571
129	0x3ddee9e9	0.108844586
130	0xbe3f5cae	-0.18687698
131	0x3e11b4bc	0.14229101
132	0x3e33a7c6	0.17544469
133	0x3ede58bf	0.43427083
134	0x3e51ad12	0.20476177
135	0x3ce92d2a	0.028463919
136	0xbe4d1f67	-0.2003151
137	0x3dfc73fe	0.12326811
138	0x3e2842ca	0.16431728
139	0x3e7505f4	0.23928052
140	0xbe150838	-0.14553916
141	0x3e54ff7b	0.20800583
142	0xbdf942ea	-0.12170966
143	0xbd1436cf	-0.036185082
144	0xbe02d705	-0.12777336
145	0xbe45a5d0	-0.19301534
146	0x3bd3fef6	0.0064696027
147	0xbe477e29	-0.1948172
148	0x3c3e79f5	0.0116257565
149	0x3e418d6d	0.18901606
150	0x3e02ed99	0.12785949
151	0x3d2e8dbe	0.042615645
152	0xbe479dbe	-0.19493768
153	0x3e669315	0.22517045
154	0x3cab5a21	0.020917
155	0xbd66a7b6	-0.056312285
156	0x3d9b738e	0.075904
157	0x3e1978fb	0.14987557
158	0xbe8c7f80	-0.27441025
159	0xbe27a93f	-0.16373156
160	0xbdaf2936	-0.08552782
161	0xbea0a608	-0.31376672
162	0x3d95954b	0.07303866
163	0x3e44f288	0.19233143
164	0xbe3719a9	-0.17880882
165	0xbb6bef51	-0.0036000798
166	0xbd5b65c8	-0.053563863
167	0x3c9f15ee	0.019419637
168	0x3cae410e	0.021271255
169	0x3d8c2fde	0.068450674
170	0xbdd5d2d3	-0.10440602
171	0x3eb51863	0.35370168
172	0x3db1d333	0.08682861
173	0xbddb932d	-0.10721431
174	0xbcb1a93a	-0.021687139
175	0xbe1d06d6	-0.15334639
176	0x3da0d936	0.0785393
177	0x3c137307	0.008999593
178	0xbd7ba8f0	-0.06144041
179	0xbdbae798	-0.09126204
180	0x3a9d69ab	0.0012009641
181	0x3e880fa5	0.26574436
182	0x3cb7f83f	0.02245724
183	0xbe70f19a	-0.23529664
184	0xbd06611c	-0.032807454
185	0xbe8bea39	-0.27327135
186	0x3e76acda	0.24089375
187	0xbe5b4f41	-0.21416952
188	0x3e24dc1c	0.1609959
189	0x3e9c1515	0.30484834
190	0x3dc1bab9	0.09459443
191	0xbe89c01a	-0.26904374
192	0x3d322f59	0.043502185
193	0x3cb3febf	0.021972058
194	0x3e388204	0.18018347
195	0x3e323b29	0.1740538
196	0x3d8e6a7f	0.06953906
197	0xbec807cb	-0.39068446
198	0xbe8cb3ca	-0.27480918
199	0xbdee1a23	-0.11626079
200	0x3dc01399	0.09378738
201	0xbdde7154	-0.108614594
202	0xbe62d424	-0.22151238
203	0x3e2a09bd	0.16605277
204	0xbdb8db46	-0.09026198
205	0xbe6d6b4d	-0.23185463
206	0x3d8ec408	0.06970984
207	0xbe226f6d	-0.15862818
208	0xbd967c77	-0.073479585
209	0x3e2a5e7d	0.16637607
210	0xbd7e7d6c	-0.06213133
211	0x3e90d352	0.28286225
212	0x3e8616ea	0.26189357
213	0x3d3ad94b	0.045617383
214	0x3c5736aa	0.0131355915
215	0xbe9d33bc	-0.30703533
216	0xbca9f988	-0.020748869
217	0x3e491be3	0.19639544
218	0xbd574a20	-0.052560925
219	0x3df7d128	0.1210044
220	0xbda19799	-0.07890243
221	0x3dac0b05	0.08400539
222	0x3d8495e3	0.06473901
223	0x3d9e9a92	0.07744326
224	0x3ce5738d	0.0280092
225	0xbbc9b451	-0.0061555286
226	0xbd1c666d	-0.03818362
227	0x3e07fc31	0.13279797
228	0xbdab45bf	-0.083629124
229	0x3dcdf221	0.10055948
230	0xbde6498e	-0.11244498
231	0x3de40632	0.11133994
232	0xbd857235	-0.06515924
233	0x3e0b23b9	0.13587846
234	0x3e2d643e	0.1693277
235	0x3d794a9c	0.06086217
236	0xbe773870	-0.24142623
237	0x3cb82fc1	0.022483708
238	0x3cc478fd	0.023983473
239	0x3df35312	0.11881079
240	0x3c5fe5c4	0.01366562
241	0x3e0b6b82	0.1361523
242	0x3d89ae53	0.06722703
243	0xbe614930	-0.22000575
244	0xbc555442	-0.013020577
245	0xbd6297c2	-0.05532051
246	0x3d80f3cc	0.062965006
247	0xbd635d70	-0.05550903
248	0xbe18c959	-0.14920558
249	0x3e88e1d5	0.26734796
250	0x3b306146	0.0026913448
251	0xbe28c4fc	-0.16481394
252	0xbc9554c3	-0.018228894
253	0x3d2a46b4	0.041571334
254	0x3d9ba587	0.07599931
255	0xbe0cf64c	-0.1376583

l1.bias f4 [100]
0	0xbdd4ee6d	-0.103970386
1	0xbdea9ced	-0.114557125
2	0x3dacef21	0.08444048
3	0xbdefa20b	-0.11700829
4	0x3e028d47	0.12749206
5	0x3e0c0921	0.13675357
6	0x3df39eaf	0.11895501
7	0xbc9af11c	-0.018913798
8	0x3d66ec99	0.05637798
9	0x3dc80ff6	0.09768669
10	0x3d9eec1a	0.077598765
11	0xbd0442d3	-0.03229029
12	0x3cdc5b55	0.02689902
13	0xbdd0eb9f	-0.10201191
14	0x3d474258	0.048647255
15	0xbdd334f8	-0.10312837
16	0xbbb24878	-0.005440768
17	0x3dd01adf	0.10161375
18	0xbd831c0d	-0.06401835
19	0x3dceb7d5	0.10093657
20	0xbd79916b	-0.060929697
21	0xbddcae91	-0.107754834
22	0x3d9f2684	0.07771018
23	0xbdf4ffeb	-0.11962875
24	0xbd63c762	-0.05561007
25	0xbdec4959	-0.115374275
26	0xbded2d79	-0.11580939
27	0x3deb91d7	0.11502426
28	0xbd93101a	-0.071808055
29	0xbdd5227f	-0.1040697
30	0xbc75cd80	-0.015002608
31	0xbdb4feab	-0.088376366
32	0xbc693d56	-0.014235815
33	0xbd0a02af	-0.033693966
34	0xbbfc0f83	-0.007692279
35	0xbd04bdc6	-0.032407545
36	0xbce0aa07	-0.027424825
37	0x3d71676f	0.058936533
38	0xbdd01cdf	-0.10161757
39	0x3d773f40	0.060363054
40	0x3c060961	0.008180947
41	0xbdc7bb90	-0.097525716
42	0xbce19a52	-0.027539406
43	0x3c844248	0.016144887
44	0x3d3cb407	0.046070125
45	0xbe1cc607	-0.15309916
46	0xbd9552dc	-0.07291195
47	0xbdb1ad21	-0.086756
48	0xbd8415a8	-0.06449443
49	0x3d360616	0.044439398
50	0xbbc6e9c0	-0.0060703456
51	0xbde8e167	-0.11371117
52	0xbce907f3	-0.028446173
53	0xbd360b78	-0.04444453
54	0x3da30e04	0.07961658
55	0xbcc3acd4	-0.023886122
56	0x3e07dbc9	0.13267435
57	0xbcf1d4ec	-0.029520474
58	0x3dda4cd7	0.10659187
59	0xbdb07247	-0.08615547
60	0xbd011703	-0.031516086
61	0xbc7aaacf	-0.015299513
62	0x3dae318f	0.08505546
63	0xbde20728	-0.11036521
64	0xbcb8165c	-0.0224716
65	0xbdf7de96	-0.12103002
66	0x3d89ca38	0.06728023
67	0x3d9cc0d0	0.076539636
68	0x3c86abf6	0.01643942
69	0xbd0c85e7	-0.034307387
70	0x3d5b73b6	0.053577147
71	0xbcf04dd3	-0.029333984
72	0x3c85f17a	0.016350497
73	0x3de26f51	0.11056388
74	0xbd2be425	-0.041965622
75	0x3cf2bb8b	0.029630443
76	0x3c856932	0.016285513
77	0x3d50eb30	0.051005542
78	0x3e0a45c2	0.13503173
79	0x3c47d9c9	0.01219792
80	0xbd6470e2	-0.055771716
81	0xbd94dbaa	-0.0726846
82	0xbcb0ca19	-0.021580743
83	0x3db56fbd	0.08859203
84	0x3df1ce26	0.11806898
85	0x3c72b7d2	0.014814334
86	0xbd5ad04d	-0.053421307
87	0xbdb21570	-0.08695495
88	0x3b80d3a0	0.0039314777
89	0xbd5e06aa	-0.054205574
90	0x3cd76404	0.026292808
91	0xbe198846	-0.1499339
92	0x3c206a7c	0.009791013
93	0x3d68209b	0.05667172
94	0x3d7fdc8e	0.062466197
95	0xbe40d038	-0.18829429
96	0x3d6b901e	0.057510488
97	0xbd1ec3c7	-0.038760927
98	0x3d99738b	0.07492741
99	0x3e048815	0.12942536

l2.weight f4 [1, 100]
0	0x3c3eaf79	0.011638516
1	0xbe0a6776	-0.1351603
2	0x3d54a4a5	0.05191483
3	0x3dda37b3	0.10655155
4	0x3deb34d7	0.11484688
5	0x3d086727	0.0333015
6	0x3d7ba394	0.061435297
7	0xbe2d644c	-0.16932791
8	0x3f021dd9	0.50826794
9	0x3e366d58	0.17815149
10	0xbda49d30	-0.08037794
11	0xbca0837d	-0.019593948
12	0xbe1ffd0e	-0.15623876
13	0xbdddd4e4	-0.10831621
14	0x3e1f035a	0.15528622
15	0x3dae3783	0.08506682
16	0x3d1f5488	0.038898975
17	0x3ce14696	0.027499478
18	0xbda8c0e6	-0.082399175
19	0x3dba6e3e	0.09103058
20	0xbda45c86	-0.0802546
21	0x3e489853	0.19589357
22	0x3e48acc4	0.19597155
23	0x3cca4a35	0.024693588
24	0x3e668925	0.22513254
25	0xbdac13f0	-0.0840224
26	0xbd767b5f	-0.06017625
27	0x3a47a3c9	0.00076156534
28	0xbde9819d	-0.11401675
29	0xbe3ad9ea	-0.1824719
30	0xbd3d25d6	-0.04617866
31	0xbe297aa3	-0.16550688
32	0xbdd14043	-0.10217335
33	0xbdc1aa9e	-0.09456371
34	0x3c7d2763	0.015451285
35	0x3ddbcd64	0.107325345
36	0x3d6f09c9	0.05835894
37	0x3d0958b0	0.033531845
38	0xbea65011	-0.3248296
39	0xbdabe65a	-0.083935454
40	0xbdade77d	-0.084914185
41	0x3bfe43bd	0.00775954
42	0xbe5d651a	-0.21620598
43	0xbc3a72e4	-0.011379931
44	0x3bbb5570	0.005716972
45	0xbe85798a	-0.2606929
46	0x3cf1b6be	0.029506084
47	0x3e96a03c	0.29419124
48	0xbd19511a	-0.03743086
49	0xbe59d103	-0.21271138
50	0xbd7f1444	-0.062275186
51	0xbe90190d	-0.28144112
52	0x3e076667	0.13222657
53	0x3e08ebc7	0.13371192
54	0xbe0a3569	-0.13496937
55	0xbdb73cbf	-0.08947133
56	0x3ddc4de5	0.10757045
57	0x3d324187	0.043519523
58	0x3e9b604c	0.30346906
59	0x3dc4a0bf	0.096009724
60	0x3ca6dfa5	0.020370314
61	0xbe109851	-0.14120604
62	0x3c14485f	0.009050458
63	0xbda3281c	-0.07966635
64	0x3e6aa502	0.22914508
65	0xbe02395b	-0.12717192
66	0xbdb1f2ea	-0.0868891
67	0xbd323650	-0.043508828
68	0x3e354767	0.17703019
69	0x3e04248b	0.12904565
70	0xbd5af1cf	-0.053453263
71	0xbd4c57ed	-0.04988854
72	0xbe8057f5	-0.25067106
73	0x3dbaf499	0.091286846
74	0x3e0e2693	0.13881902
75	0x3da1ee73	0.07906809
76	0xbe05cc24	-0.13066155
77	0xbdafaa21	-0.085773714
78	0xbd1d77a9	-0.038444195
79	0x3df100aa	0.11767705
80	0x3e88bab8	0.26704955
81	0xbe4498f8	-0.19198978
82	0xbd965986	-0.07341294
83	0xbcb3a191	-0.021927627
84	0x3b89f568	0.004210163
85	0x3c93311e	0.017967757
86	0xbe1e3559	-0.15450038
87	0x3df944be	0.12171315
88	0x3aef6696	0.0018264826
89	0x3db391d9	0.087680526
90	0xbc5e5521	-0.013570101
91	0xbe25591c	-0.16147274
92	0xbd5cd0c5	-0.053910036
93	0xbd218ab5	-0.039438922
94	0x3e80aa50	0.25129938
95	0xbea01f8a	-0.31274062
96	0xbd930060	-0.07177806
97	0x3da9cfa3	0.08291557
98	0x3c523a85	0.012831335
99	0x3e6909d0	0.2275765
