backup/final_models/JS.pt (torch, 25807 bytes, 3 tensors)

l1.weight f4 [100, 58]
0.095157765 -0.0014727878 -0.155178 -0.4357868 -0.06409974 0.110185154 0.08247999 -0.0004380955
-0.06903014 -0.16840912 0.07661618 -0.043348517 -0.023259569 0.054436043 0.05489912 -0.0012192731
0.1587587 -0.19069974 -0.3368174 -0.14388256 0.0035752396 0.22922672 -0.017181877 -0.050476138
0.16396077 0.15831815 -0.1946402 0.0072532813 -0.17695005 0.17353995 -0.015928093 -0.08037801
0.09429104 0.045038242 -0.084635094 0.08095022 -0.043423276 0.060998328 0.16734688 -0.022484355
-0.075712346 -0.0032874353 -0.13284759 -0.078500085 -0.013521468 0.11250521 0.090155266 0.21378186
-0.08511236 -0.07193127 0.0814905 0.07479276 -0.092689306 0.2978677 0.03815725 0.052038558
0.07710351 -0.009344488 -0.25924018 -0.0027407587 0.015595782 0.04459285 0.2724197 0.035663296
-0.009105447 0.25861755 -0.03851255 -0.045529667 -0.10812877 -0.020734102 -0.07028609 0.22047669
-0.07558664 0.13639334 0.18783782 -0.0050992155 0.039361365 -0.14979513 0.29166508 -0.14846216
0.18329479 0.19850971 -0.048257284 -0.017541151 -0.09986649 -0.105081744 0.083150595 -0.007783923
-0.16971953 0.30857787 -0.15708959 -0.03876956 0.2521229 0.18171601 0.27460337 -0.2603365
0.025718156 0.15264226 -0.067052886 -0.0988272 -0.09599914 0.0587909 0.015703347 0.105020255
0.14392993 -0.35677218 -0.07943413 0.043100037 -0.20562957 0.05429546 0.19097105 0.011128764
-0.12821786 -0.14682226 -0.31999853 0.16102216 -0.086672015 -0.057367347 0.32324147 -0.3469708
0.13776554 0.0054182922 0.20258753 0.15073451 -0.20993307 0.008559608 0.05641026 -0.026566485
-0.012567044 0.049610045 0.024348306 0.03350815 -0.18418293 0.25472456 0.03868461 -0.09304188
-0.454916 -0.362191 0.14141923 0.17355515 0.14626391 -0.30615187 0.16174519 -0.06425982
0.15411705 -0.038794577 -0.040772785 -0.01589622 -0.13560437 -0.08479375 -0.0050511295 -0.051359504
0.21627893 -0.024183035 -0.15084384 0.030911624 -0.21121715 -0.31243724 -0.06533375 0.031657644
0.1921442 0.005448803 -0.008036612 0.014791692 -0.07756959 -0.058792 -0.0375372 0.061910547
-0.058183234 -0.118787974 -0.037103403 -0.15299313 -0.088385224 0.18029657 -0.07103358 -0.24659956
0.20871896 0.06645339 -0.02642444 -0.06396267 0.12183357 -0.2229436 0.49311164 -0.3245447
-0.004927871 0.043352906 0.008306562 0.21790677 -0.09187225 0.015827147 0.1216712 -0.016125131
0.12544395 -0.08662107 -0.11779281 -0.061332718 -0.21899894 -0.3314462 -0.054658417 0.026755925
0.16654967 0.015430442 0.14137417 0.065845154 0.22472033 0.008196383 0.15892614 0.33604026
-0.083317995 0.32635903 -0.0496297 0.18821298 -0.16076435 -0.054852437 -0.00064903987 -0.33625355
-0.244342 0.092034355 -0.10144225 0.0020659363 -0.059548438 0.108053155 -0.3292751 -0.066790424
0.17116718 -0.15029173 0.32597464 0.009365565 -0.089052126 -0.29712817 0.025061173 0.03375014
-0.06957651 0.01077123 -0.40392122 0.18705104 -0.038683925 -0.039032757 0.05545416 -0.3415318
-0.051562533 0.039705187 0.13166769 0.16412067 -0.007212385 -0.17984025 0.15675177 0.004208465
-0.15476571 0.29396665 0.03469315 0.036306474 -0.0028269966 0.13667473 -0.019226436 0.39368662
00000000: 13e2 c23d 8f0a c1ba fbe6 1ebe 731f dfbe
00000010: b946 83bd c1a8 e13d 45eb a83d 2fb0 e5b9
00000020: ad5f 8dbd 7173 2cbe f2e8 9c3d 378e 31bd
00000030: da8a bebc 54f8 5e3d e6dd 603d 04d0 9fba
00000040: a491 223e cb46 43be 5573 acbe f355 13be
00000050: 914e 6a3b 69ba 6a3e 02c1 8cbc 11c0 4ebd
00000060: 55e5 273e 271e 223e c34f 47be efac ed3b
00000070: 6532 35be 75b4 313e a27b 82bc 3a9d a4bd
00000080: a91b c13d 057a 383d 2a55 adbd 3bc9 a53d
00000090: 9bdc 31bd 62d9 793d fb5c 2b3e 1c31 b8bc
000000a0: 130f 9bbd 0372 57bb 3309 08be a7c4 a0bd
000000b0: 2689 5dbc 2269 e63d 53a3 b83d a2e9 5a3e
000000c0: 644f aebd b450 93bd 7ee4 a63d f22c 993d
000000d0: e4d3 bdbd 1d82 983e c74a 1c3d 6226 553d
000000e0: 72e8 9d3d a019 19bc 21bb 84be 4d9e 33bb
000000f0: 7385 7f3c fea6 363d 987a 8b3e ad13 123d
00000100: 032f 15bc 8569 843e 56bf 1dbd 517d 3abd
00000110: 9e72 ddbd 90da a9bc 27f2 8fbd a4c4 613e
00000120: 2bcd 9abd b2aa 0b3e 8f58 403e 5217 a7bb
00000130: 6239 213d e563 19be 2055 953e 7706 18be
00000140: a1b1 3b3e 2146 4b3e 6ea9 45bd 76b2 8fbc
00000150: cd86 ccbd 1935 d7bd dc4a aa3d 4710 ffbb
00000160: f5ca 2dbe ebfd 9d3e 18dc 20be d5cc 1ebd
00000170: 4116 813e c313 3a3e d098 8c3e d34a 85be
00000180: e2ae d23c 414e 1c3e 0653 89bd ea65 cabd
00000190: 329b c4bd bace 703d 4ea4 803c dc14 d73d
000001a0: 5e62 133e d8aa b6be 5cae a2bd aa89 303d
000001b0: 8f90 52be eb64 5e3d ea8d 433e 6b55 363c
000001c0: 8b4b 03be 9358 16be d9d6 a3be fee2 243e
000001d0: 1981 b1bd 06fa 6abd e87f a53e 28a6 b1be
000001e0: 6912 0d3e ee8b b13b 1b73 4f3e 265a 1a3e
000001f0: b2f8 56be 993d 0c3c 720e 673d f5a1 d9bc
00000200: 01e6 4dbc e733 4b3d 1976 c73c d83f 093d
00000210: 739a 3cbe 426b 823e c173 1e3d be8c bebd
00000220: c0ea e8be 1971 b9be 34d0 103e 71b8 313e
00000230: 35c6 153e f0bf 9cbe 88a0 253e a79a 83bd
00000240: dcd0 1d3e 10e7 1ebd 5d01 27bd ca38 82bc
00000250: dfdb 0abe 58a8 adbd f283 a5bb 585e 52bd
00000260: 3978 5d3e 801b c6bc cf76 1abe 603a fd3c
00000270: 4f49 58be c6f7 9fbe b3cd 85bd 72ab 013d
00000280: 73c1 443e df8b b23b feab 03bc da58 723c
00000290: cedc 9ebd e1cf 70bd 9bc0 19bd ea95 7d3d
000002a0: 8b51 6ebd 1c47 f3bd bdf9 17bd 3baa 1cbe
000002b0: 5003 b5bd aa9f 383e 0e7a 91bd 9884 7cbe
000002c0: 6cba 553e b718 883d 1178 d8bc dcfe 82bd
000002d0: e183 f93d 544b 64be 2179 fc3e b92a a6be
000002e0: fa79 a1bb d192 313d 3f18 083c f422 5f3e
000002f0: 8527 bcbd efa7 813c c02e f93d da18 84bc
00000300: 6174 003e 6366 b1bd 5b3d f1bd 0438 7bbd
00000310: 4241 60be 51b3 a9be 81e1 5fbd 3e2f db3c
00000320: ff8b 2a3e f7cf 7c3c 64c4 103e d3d9 863d
00000330: 161d 663e 1f4a 063c 89bd 223e 780d ac3e
00000340: a0a2 aabd 8818 a73e 8348 4bbd e7ba 403e
00000350: 699f 24be f3ac 60bd 5424 2aba 6d29 acbe
00000360: ca34 7abe 827c bc3d f4c0 cfbd a964 073b
00000370: 10e9 73bd f94a dd3d bf96 a8be 6bc9 88bd
00000380: 7346 2f3e 13e6 19be 26e6 a63e 0772 193c
00000390: f660 b6bd 2f21 98be 174d cd3c 963d 0a3d
000003a0: 217e 8ebd d079 303c c3ce cebe 4f8a 3f3e
000003b0: 0973 1ebd d0e0 1fbd e723 633d 42dd aebe
000003c0: 3c33 53bd e8a1 223d e5d3 063e 400f 283e
000003d0: df55 ecbb 0b28 38be 8983 203e 2ae7 893b
000003e0: e77a 1ebe cc82 963e 681a 0e3d 19b6 143d
000003f0: 2245 39bb 76f4 0b3e c280 9dbc 4b91 c93e

l1.bias f4 [100]
-0.12544382 0.09784359 0.105625056 -0.09163653 0.11847519 -0.0174841 -0.07878699 0.033470172
-0.116011396 0.091987155 -0.09616783 0.040829424 -0.041711178 -0.08797959 -0.084704004 0.0029613709
-0.00087488786 -0.06875732 -0.12313797 -0.07710798 -0.101841 0.11731819 -0.07146212 -0.033730622
-0.06424896 -0.060418997 0.11094268 -0.060941476 0.1302778 0.03159951 -0.12772228 -0.15227126
-0.084214896 0.00059663766 -0.10808722 0.06377668 -0.055669714 0.055981316 -0.07590496 0.04591626
-0.0739074 0.032524202 0.024254624 0.032091297 0.0025985064 -0.082593575 -0.01307841 0.041000985
-0.031363036 -0.02985307 -0.085314065 -0.070471704 0.04621019 -0.032048237 -0.0410244 -0.13065922
-0.11428997 0.12672666 -0.0649308 -0.13124666 -0.1330888 -0.12529866 0.07045873 -0.084689625
-0.08690406 -0.13287997 0.03894996 -0.1145404 -0.08861727 0.109468564 0.03892228 0.049935486
-0.008480125 -0.08093569 0.09240038 0.041628245 0.041768286 -0.11363451 0.09596424 0.076942936
-0.096191294 -0.15052909 -0.13744435 -0.13869047 -0.036762495 -0.12983406 -0.065936014 -0.11487945
0.00019029644 -0.042797107 0.08357044 0.008908763 -0.0365151 -0.0111565795 0.013600121 -0.012838782
0.040030964 0.07330584 0.056937013 -0.009110941
00000000: 5874 00be 3862 c83d f351 d83d efab bbbd
00000010: 1fa3 f23d d13a 8fbc 135b a1bd 0518 093d
00000020: 6297 edbd c363 bc3d a4f3 c4bd c13c 273d
00000030: 57d9 2abd a52e b4bd 4b79 adbd 8f13 423b
00000040: bb58 65ba a3d0 8cbd c32f fcbd caea 9dbd
00000050: 0492 d0bd 8544 f03d bb5a 92bd 1f29 0abd
00000060: f594 83bd e979 77bd ea35 e33d c59d 79bd
00000070: 8b67 053e 7d6e 013d a1c9 02be ffec 1bbe
00000080: dc78 acbd ad67 1c3a d55c ddbd 599d 823d
00000090: ed05 64bd aa4c 653d 0f74 9bbd b012 3c3d
000000a0: c35c 97bd 1938 053d a2b1 c63c 2a72 033d
000000b0: b44b 2a3b d226 a9bd d446 56bc a6f0 273d
000000c0: 8776 00bd 6d8e f4bc 24b9 aebd 7853 90bd
000000d0: e546 3d3d 0345 03bd 3409 28bd 88cb 05be
000000e0: dc10 eabd a2c4 013e 70fa 84bd 8665 06be
000000f0: 6e48 08be 4b4e 00be ab4c 903d c171 adbd
00000100: c1fa b1bd b011 08be fe89 1f3d 2894 eabd
00000110: f97c b5bd 0e31 e03d f86c 1f3d 2789 4c3d
00000120: 39f0 0abc 9cc1 a5bd 693c bd3d 6182 2a3d
00000130: 3915 2b3d 36b9 e8bd e688 c43d 4294 9d3d
00000140: f1ff c4bd 4c24 1abe 36be 0cbe e004 0ebe
00000150: 4594 16bd 38f3 04be 7609 87bd eb45 ebbd
00000160: 508a 4739 054c 2fbd fb26 ab3d 0ff6 113c
00000170: dc90 15bd 16ca 36bc 0bd3 5e3c c159 52bc
00000180: 82f7 233d 5f21 963d c936 693d 0e46 15bc

l2.weight f4 [1, 100]
-0.15380774 0.31074923 0.05028476 -0.11399293 0.03834876 -0.19237655 0.04449797 -0.34618673
-0.17378576 -0.15074988 0.014480277 -0.23230496 -0.19490644 -0.04474315 -0.2111903 -0.11208023
0.20720349 -0.07389336 -0.011707061 0.0127563635 -0.0041973945 -0.062511355 0.18217474 -0.13905303
-0.0709176 -0.20379703 -0.012520611 -0.10334802 0.18786173 -0.18457173 -0.22770208 -0.2331643
0.027443869 0.1530417 0.117554545 0.27262902 0.18828994 0.18827814 0.014954922 -0.014416215
0.24467824 -0.2614417 -0.28774458 0.18693429 0.06253442 0.46501496 -0.09887872 -0.04877803
0.046018746 -0.04345869 0.06544416 -0.52479595 0.24389262 0.0016349497 0.3871858 -0.14145978
-0.12758477 0.08508461 0.020525 -0.02445139 -0.1243928 0.28100663 -0.19374539 -0.14850394
-0.24102445 -0.08483516 0.09513506 -0.07032075 0.49370158 0.20910507 0.11300613 0.0055275485
-0.06002661 0.12317374 0.01931363 0.38902175 -0.14609286 0.2602312 0.14144127 -0.32273653
-0.6338551 -0.30139256 -0.25811586 -0.20509632 0.3222596 0.15763225 0.095023975 0.027005868
-0.20204611 0.14816684 -0.014048981 0.30011356 0.058478847 0.024066161 -0.004054761 -0.13456202
-0.0013299867 0.014267927 0.21439192 0.22378747
00000000: c77f 1dbe 861a 9f3e 64f7 4d3d 2075 e9bd
00000010: 9713 1d3d 5cfe 44be 8143 363d 633f b1be
00000020: e5f4 31be 2d5e 1abe af3e 6d3c 5ae1 6dbe
00000030: 8e95 47be 9844 37bd 4542 58be 528a e5bd
00000040: 272d 543e 6755 97bd f9ce 3fbc 1100 513c
00000050: 4c8a 89bb f405 80bd 048c 3a3e eb63 0ebe
00000060: 3f3d 91bd 2bb0 50be 4023 4dbc 20a8 d3bd
00000070: d35e 403e 5f00 3dbe bc2a 69be 9fc2 6ebe
00000080: f7d1 e03c f7b6 1c3e 70c0 f03d 0896 8b3e
00000090: 14cf 403e fccb 403e 7d05 753c fd31 6cbc
000000a0: ef8c 7a3e b0db 85be 4253 93be b46b 3f3e
000000b0: 0c12 803d 7116 ee3e ed80 cabd 79cb 47bd
000000c0: 277e 3c3d bd01 32bd 9607 863d 0759 06bf
000000d0: fdbe 793e cf4b d63a 383d c63e d5da 10be
000000e0: 95a5 02be d740 ae3d 0b24 a83c 484e c8bc
000000f0: a7c1 febd 1ae0 8f3e 3165 46be 6b11 18be
00000100: 1dcf 76be 0ebe adbd 2cd6 c23d 5304 90bd
00000110: 74c6 fc3e a41f 563e c26f e73d 7020 b53b
00000120: 76de 75bd 8442 fc3d 9e37 9e3c dc2d c73e
00000130: 5e99 15be 063d 853e fbd5 103e b93d a5be
00000140: 5444 22bf 2050 9abe c327 84be c504 52be
00000150: 36ff a43e 596a 213e ee9b c23d 693b dd3c
00000160: 2de5 4ebe 0cb9 173e b22d 66bc 7ca8 993e
00000170: 8487 6f3d 6626 c53c cddd 84bb a0ca 09be
00000180: f352 aeba 06c4 693c 8e89 5b3e 8b28 653e
