backup/final_models/KL.pt (torch, 25807 bytes, 3 tensors)

l1.weight f4 [100, 58]
0	0xbe67973d	-0.22616287
1	0xbdec20bc	-0.11529681
2	0x3d9d654a	0.07685335
3	0xbd06577b	-0.03279827
4	0xbea513e2	-0.32241732
5	0x3d2afda9	0.041745815
6	0x3dfed53f	0.12443017
7	0x3e2ef771	0.17086579
8	0xbe088c45	-0.13334759
9	0xbe1b61ba	-0.15173998
10	0xbcc0e9d7	-0.023549004
11	0x3e20d79f	0.15707253
12	0xbb9eb3b8	-0.0048432015
13	0x3e000890	0.12503266
14	0xbd8a444c	-0.06751308
15	0x3ca510d7	0.020149631
16	0x3dfa649d	0.12226222
17	0x3ea8df91	0.32983068
18	0xbe172304	-0.14759451
19	0xbe51347a	-0.20430174
20	0x3e0e05a7	0.13869344
21	0x3d681475	0.056660134
22	0x3cfe7c1b	0.031065037
23	0xbdad53e9	-0.0846327
24	0xbd90bd4e	-0.07067357
25	0x3d071632	0.03298015
26	0x3dbd66fc	0.09248158
27	0xbd425f63	-0.04745425
28	0xbe4cdbd4	-0.20005733
29	0xbd731848	-0.05934933
30	0xbd353426	-0.044239186
31	0x3c32c06c	0.010910135
32	0xbdf9b287	-0.121922545
33	0x3e67848b	0.22609155
34	0x3e7b93a7	0.24568044
35	0x3d6da735	0.05802079
36	0xbdacdc86	-0.08440499
37	0xbe0b1fb3	-0.13586311
38	0xbe4cf33b	-0.2001466
39	0x3e611235	0.21979602
40	0xbdc9e02d	-0.09857211
41	0xbdaf0005	-0.085449256
42	0xbe32540f	-0.17414878
43	0xbd86a3fc	-0.06574246
44	0xbe2f767e	-0.17135045
45	0xbe3442e7	-0.17603646
46	0x3e5324b6	0.20619473
47	0x3dca0e75	0.09866039
48	0x3c865dff	0.016402243
49	0x3dd7ed6d	0.10543332
50	0x3c97277d	0.018451447
51	0x3b1e4d6c	0.0024155034
52	0xbe1533ed	-0.1457059
53	0xbda16312	-0.07880224
54	0x3e6a46e7	0.2287861
55	0x3cf97d3a	0.03045522
56	0x3e711ba2	0.23545697
57	0x3d8561da	0.06512804
58	0xbddf9236	-0.109165594
59	0x3e5aeb7f	0.21378897
60	0xbc29bdaf	-0.0103601655
61	0x3e73aa83	0.23795514
62	0xbdc459f0	-0.09587467
63	0x3d1d931b	0.03847037
64	0xbeb9ef15	-0.36315218
65	0xbdc2d777	-0.09513753
66	0xbe4e90c4	-0.20172411
67	0xbe9b975e	-0.30388921
68	0xbdc5194d	-0.09623966
69	0xbe6d83f8	-0.23194873
70	0x3e0cc3dd	0.13746591
71	0xbe014efd	-0.12627788
72	0xbd78eda8	-0.06077352
73	0x3ea7887e	0.32721323
74	0x3e4be42f	0.19911264
75	0x3dace7cb	0.084426485
76	0xbe172fa3	-0.14764266
77	0x3dbcb5b7	0.09214347
78	0x3da8a985	0.08235458
79	0xbd9836dc	-0.074323386
80	0xbcc919f2	-0.024548505
81	0x3dc4551e	0.09586547
82	0xbcbd04a0	-0.023073494
83	0xbe329771	-0.17440583
84	0xbd32c4bc	-0.04364465
85	0x3c82852e	0.015932646
86	0xbca6640a	-0.020311374
87	0xbe5eb80c	-0.21749896
88	0xbe1b6d07	-0.1517831
89	0x3c3c353e	0.011487303
90	0x3dadaded	0.08480439
91	0x3e10c515	0.14137681
92	0xbe217bf0	-0.15769935
93	0x3e2cd9e3	0.16879992
94	0x3ea08124	0.31348526
95	0x3d5ccd19	0.053906534
96	0x3e297990	0.16550279
97	0x3ced536a	0.028970439
98	0xbe7e649a	-0.24843064
99	0x3cd18d83	0.025580173
100	0x3e1abaaf	0.15110277
101	0x3e0d9155	0.13824971
102	0x3e47d82b	0.19516055
103	0x3d61a8a7	0.05509248
104	0xbe1526f1	-0.14565636
105	0x3e9c567e	0.30534738
106	0x3d487054	0.04893525
107	0xbeadd527	-0.33951685
108	0xbea6350e	-0.32462353
109	0x3dd93d16	0.10607354
110	0x3d100ea2	0.035170205
111	0xbe31c89b	-0.17361681
112	0x3e511e9d	0.20421834
113	0x3e60ffbb	0.21972553
114	0x3e7e0520	0.24806643
115	0xbe27a1db	-0.16370337
116	0x3dde4192	0.1085235
117	0xbd067f74	-0.032836393
118	0xbd5649f5	-0.052316625
119	0xbe7dbee6	-0.24779853
120	0x3e1a895d	0.15091462
121	0x3da7c429	0.081917115
122	0xbe24b2a4	-0.16083771
123	0xbcd8751c	-0.02642303
124	0x3e687151	0.22699477
125	0x3db084b7	0.08619063
126	0x3e90841c	0.2822579
127	0x3ca214e6	0.019785356
128	0xbd9e72ce	-0.07736741
129	0x3e75cd51	0.24004103
130	0x3d65cde0	0.05610454
131	0x3d96c5b2	0.07361926
132	0x3d130826	0.035896443
133	0xbe1a971e	-0.15096709
134	0x3e840db5	0.25791708
135	0xbe290537	-0.16505896
136	0xbdff649b	-0.12470361
137	0xbd4f4d2a	-0.0506107
138	0x3e1f97d2	0.15585259
139	0x3d41002d	0.04711931
140	0x3dd8dcb1	0.105889685
141	0xbe0de4dd	-0.13856836
142	0xbdbb12b5	-0.091344275
143	0xbe2807a5	-0.16409166
144	0xbc459d2c	-0.0120613985
145	0x3d93a273	0.07208719
146	0x3ce7a219	0.028275536
147	0xbdfbc255	-0.12292925
148	0xbead185f	-0.33807656
149	0xbd03aaae	-0.032145195
150	0x3d849410	0.06473553
151	0x3df261a5	0.118350305
152	0x3e486052	0.19567993
153	0x3cf21325	0.029550144
154	0xbd7e82d7	-0.062136497
155	0x3dccb67d	0.099957444
156	0xbdf3a3b6	-0.1189646
157	0x3dd659cd	0.10466347
158	0x3d6319ae	0.055444412
159	0xbd524ca0	-0.051342607
160	0xbd5d0e22	-0.053968556
161	0xbe9b51f4	-0.30335963
162	0xbdf0135f	-0.11722445
163	0x3e01c3f2	0.12672403
164	0x3cd010b4	0.02539859
165	0x3b97c2ad	0.0046313615
166	0xbe1080fc	-0.14111704
167	0xbe83fb82	-0.25777823
168	0x3e841b33	0.25802
169	0x3de402db	0.11133357
170	0x3e4457ab	0.19174068
171	0x3cb6c654	0.022311367
172	0xbd94488c	-0.072404
173	0xbe9b0af5	-0.30281797
174	0x3dc8ddbc	0.098079175
175	0x3d21931d	0.03944694
176	0x3d2d56cb	0.0423191
177	0xbe2761d2	-0.16345909
178	0xbec778d9	-0.38959387
179	0xbbedaa20	-0.0072529465
180	0x3d920d08	0.07131392
181	0xbe04ef1b	-0.12981836
182	0x3c9aa380	0.018876791
183	0x3e6e44bf	0.23268412
184	0x3e58cbfa	0.21171561
185	0xbdd6c4b9	-0.104867406
186	0x3dbc7371	0.09201706
187	0xbe013fe1	-0.12622024
188	0xbd86d344	-0.065832645
189	0x3e232696	0.15932688
190	0xbdad3a86	-0.08458428
191	0x3d42127a	0.047380902
192	0x3cecc40a	0.028902072
193	0x3e3d4f79	0.18487348
194	0x3df0917a	0.117464975
195	0x3e8c6d77	0.27427265
196	0xbe479613	-0.19490843
197	0x3e4a2af8	0.19742954
198	0xbd1c0b53	-0.038096737
199	0xbe5e82b6	-0.2172955
200	0xbd3e7e2c	-0.046507046
201	0x3e37a5dd	0.17934366
202	0xbd753ad1	-0.059870545
203	0xbe84bbf4	-0.25924647
204	0x3dc53824	0.096298486
205	0xbd7d167f	-0.061789032
206	0xbc4fdb73	-0.012686598
207	0xbdd6324d	-0.10458813
208	0xbce8e036	-0.028427225
209	0xbdd044aa	-0.10169347
210	0x3e1a2af7	0.15055452
211	0xbe05b6ca	-0.1305801
212	0x3cd12e85	0.025534878
213	0x3d53d3ce	0.051715665
214	0x3e05506b	0.13018958
215	0x3defc45d	0.11707375
216	0x3cd2348d	0.025659824
217	0x3e4367e8	0.19082606
218	0xbe04b139	-0.1295823
219	0xbe601bed	-0.21885653
220	0x3d960cd7	0.07326668
221	0x3e899196	0.26868886
222	0x3b31375e	0.0027041058
223	0x3d93544a	0.07193811
224	0xbe2e887c	-0.17044252
225	0xbd8a2526	-0.06745367
226	0xbe8e9c63	-0.2785369
227	0x3df1b618	0.1180231
228	0xbe562722	-0.20913365
229	0x3e4eb9ad	0.20188017
230	0xbdbd08e0	-0.092302084
231	0xbd8f328a	-0.069920614
232	0xbb7c9e74	-0.0038546594
233	0x3dbec7e7	0.09315472
234	0x3dd85219	0.10562534
235	0xbdea89f3	-0.11452093
236	0x3e8e5970	0.2780261
237	0x3d0bda94	0.034144
238	0x3de4888c	0.11158857
239	0x3dfe075d	0.12403748
240	0x3e0e2142	0.13879874
241	0x3e9e1147	0.30872557
242	0xbe5a3eb7	-0.21312986
243	0x3d183dcd	0.037168313
244	0x3cc8186c	0.024425708
245	0x3e14c33b	0.145276
246	0xbe96ca7e	-0.29451364
247	0x3e705b50	0.23472333
248	0x3e13bc39	0.1442727
249	0xbb8ca4c0	-0.0042921007
250	0xbe2967ba	-0.16543475
251	0xbdb1dc43	-0.0868459
252	0xbe42d16e	-0.19025204
253	0xbd9318eb	-0.07182487
254	0x3e86eaba	0.26350957
255	0xbad95023	-0.0016579669

l1.bias f4 [100]
0	0xbdc89c72	-0.097954646
1	0x3d8ac8af	0.067765586
2	0xbdd9276e	-0.10603224
3	0xbdbf7cd9	-0.09349985
4	0xbde4689a	-0.11152764
5	0x3dd8f702	0.10593988
6	0xbdaaf201	-0.0834694
7	0xbd8d55a7	-0.069011025
8	0xbdfe8a3b	-0.12428709
9	0xbb8ddf8d	-0.004329628
10	0x3e0477d3	0.12936334
11	0xbc187e61	-0.009307475
12	0xbdb4d515	-0.08829705
13	0x3db8bfe2	0.09020974
14	0x3ce8c783	0.028415447
15	0x3cb153bf	0.021646379
16	0xbd9a1298	-0.07523078
17	0xbdb6d59c	-0.089274615
18	0xbd58714b	-0.05284242
19	0xbe06eba0	-0.13175821
20	0xbd83ca4c	-0.064350694
21	0x3c2e4ec6	0.010638898
22	0x3d0de26a	0.034639753
23	0x3caeeb77	0.021352513
24	0xbd7765aa	-0.06039969
25	0xbdd8ea9a	-0.10591622
26	0x3dff6245	0.12469915
27	0x3da72cb3	0.081628226
28	0x3db84731	0.08997954
29	0x3d8eefa6	0.06979303
30	0xbdb1b4d5	-0.08677069
31	0xbdf816f9	-0.12113757
32	0xbd8c8acc	-0.06862411
33	0x3dcf84bf	0.10132741
34	0xbc93c406	-0.018037807
35	0xbd209b13	-0.03921039
36	0xbd415c4a	-0.047207154
37	0xbb9bed40	-0.004758507
38	0x3db9bc91	0.09069169
39	0x3cd419c3	0.02589119
40	0xbdbc500d	-0.09194956
41	0xbe0b16a1	-0.13582851
42	0xbe1fc8f4	-0.15604001
43	0xbdeecc4f	-0.116600625
44	0xbc40b80a	-0.011762628
45	0xbbd8159b	-0.0065943724
46	0x3d31773c	0.0433266
47	0xbdf0f192	-0.11764826
48	0x3dc0fbed	0.09423051
49	0x3d4fe1cd	0.05075245
50	0x3d8466ba	0.06464906
51	0x3d8e4ce6	0.06948261
52	0xbcab9680	-0.020945787
53	0x3d87d23b	0.06631895
54	0xbd9dd7ca	-0.07707174
55	0x3c335473	0.010945427
56	0x3dc734c0	0.09726858
57	0xbdef7ee6	-0.11694126
58	0xbcb7729e	-0.02239352
59	0x3b047f45	0.002021746
60	0x3d39b954	0.04534276
61	0xbd382915	-0.044961054
62	0x3c028242	0.007965626
63	0x3d453ffb	0.04815672
64	0xbc467e6d	-0.012115103
65	0xbdc802d9	-0.09766168
66	0xbddbdb31	-0.10735167
67	0x3dfac928	0.12245399
68	0x3d38bfed	0.04510491
69	0x3e0041e4	0.12525135
70	0x3d134c14	0.035961226
71	0xbca9c99e	-0.020726021
72	0xbde493a4	-0.11160973
73	0x3d484a97	0.04889926
74	0x3c267441	0.010159553
75	0xbdd57709	-0.10423095
76	0xbde64800	-0.11244202
77	0x3d8e620e	0.06952296
78	0x3ccb44ee	0.024813142
79	0xbd3f629c	-0.0467249
80	0xbc8239c6	-0.01589669
81	0xbcde185f	-0.02711123
82	0xbdb5f07a	-0.08883758
83	0x3dc762d1	0.097356446
84	0x3d629c14	0.05532463
85	0x3d586604	0.052831665
86	0x3ddcb032	0.10775794
87	0xbd4844c2	-0.048893698
88	0xbd187529	-0.037221108
89	0x3bc67884	0.006056847
90	0xbdbc694f	-0.091997735
91	0xbdc11d1f	-0.094293825
92	0xbdc9053b	-0.09815451
93	0xbdc65d90	-0.096858144
94	0xbd15b213	-0.036546778
95	0xbd1609d3	-0.036630463
96	0x3bf67378	0.007521089
97	0x3d527892	0.051384516
98	0x3df284dd	0.11841748
99	0x3d52b171	0.051438753

l2.weight f4 [1, 100]
0	0x3e4d32bf	0.2003889
1	0x3da07f1a	0.07836743
2	0xbd6bcd84	-0.05756904
3	0xbdc23c14	-0.09484115
4	0x3e9e8f95	0.3096892
5	0x3e53b6b1	0.2067516
6	0x3df6f981	0.12059308
7	0x3e35cd16	0.17754015
8	0xbe676734	-0.22597963
9	0x3d27ea83	0.040995132
10	0x3deb5247	0.114903025
11	0x3dd2c73a	0.10291906
12	0xbe389367	-0.1802498
13	0xbdc69bb2	-0.09697665
14	0x3e137fc7	0.14404212
15	0xbdcb12bb	-0.09915682
16	0xbc3ebd04	-0.0116417445
17	0x3df029e5	0.11726741
18	0xbdac67a0	-0.084182024
19	0xbccb50bc	-0.02481877
20	0x3d56b1e9	0.052415762
21	0xbd4e2d9b	-0.05033646
22	0xbda872c6	-0.08225016
23	0xbc01e5f4	-0.00792836
24	0xbc89e613	-0.01683334
25	0x3dc005ae	0.09376083
26	0x3d84395c	0.06456253
27	0x3dc0fe5f	0.094235174
28	0xbe25f972	-0.16208437
29	0xbda24d24	-0.0792487
30	0x3da78e6f	0.08181464
31	0x3c93d73d	0.01804697
32	0x3d28b657	0.041189518
33	0x3d138750	0.036017716
34	0x3eb2135c	0.34780395
35	0xbd67550e	-0.0564776
36	0x3dae0fb0	0.08499086
37	0xbe7c158e	-0.24617597
38	0xbe7ba59e	-0.24574897
39	0xbdad86bb	-0.084729634
40	0xbde716e8	-0.11283666
41	0xbdacc433	-0.084358595
42	0xbe9cc215	-0.30616823
43	0xbe60128b	-0.21882074
44	0xbe53f58a	-0.20699134
45	0xbcef8fcf	-0.029243378
46	0x3e572323	0.21009497
47	0xbd266149	-0.040620122
48	0xbd143be9	-0.036189947
49	0x3e967605	0.29386917
50	0x3e3a284b	0.18179433
51	0x3d4934f9	0.049122784
52	0x3d52e8b2	0.051491447
53	0xbdd2e828	-0.102981865
54	0x3e80e6b0	0.25176
55	0xbdb79581	-0.089640625
56	0x3ecb733c	0.39736354
57	0xbc418eb8	-0.011813812
58	0xbd3ce9ae	-0.04612129
59	0x3bcf14c2	0.006319613
60	0x3d79f36b	0.061023157
61	0x3ce2ffde	0.027709898
62	0xbd4cd644	-0.050009027
63	0xbd9ca8ee	-0.07649408
64	0xbda0e019	-0.07855243
65	0x3e0c08e5	0.13675268
66	0xbe6070bc	-0.21918005
67	0x3d80cea0	0.062894106
68	0xbc3511cb	-0.011051605
69	0x3dc1245e	0.094307646
70	0xbe59eac5	-0.21280964
71	0x3dfd87f5	0.12379447
72	0x3d9bf215	0.07614533
73	0xbd2381bf	-0.039918657
74	0xbdc9e8e5	-0.09858874
75	0xbde84848	-0.113419116
76	0xbe28a6b9	-0.1646985
77	0xbdc45b59	-0.09587736
78	0x3dc5fa7d	0.096669175
79	0x3d6fc490	0.058537066
80	0x3d057b34	0.0325882
81	0x3e27cb0c	0.1638605
82	0xbc0570f8	-0.00814461
83	0xbd499570	-0.04921478
84	0xbd8e8cf9	-0.06960482
85	0x3b6d64b3	0.0036223351
86	0xbd0d22ab	-0.03445689
87	0xbe8fb8ef	-0.2807078
88	0x3d98552e	0.07438122
89	0xbc68ffdb	-0.014221157
90	0xbd6e4691	-0.058172766
91	0x3dd5d54b	0.10441073
92	0xb9c07f2f	-0.00036715853
93	0xbdb08868	-0.086197674
94	0xbbd9af56	-0.006643216
95	0x3e36ba93	0.1784461
96	0xbd2e630f	-0.04257494
97	0x3e9a8195	0.30176988
98	0xbd3ad4f9	-0.045613263
99	0xbe2cdc26	-0.16880855
